preliminary_testing/gru_model.pth (torch, 56604 bytes, 5 tensors)

gru.weight_ih_l0 f4 [192, 4]
-0.15525065 -0.16628034 -0.059308086 0.040811222 -0.059920788 0.0198941 0.067100234 0.097273566
0.0006879516 -0.08323081 -0.018815845 -0.07002325 0.11250965 0.00030940678 0.03498767 0.1441615
0.25629076 0.13119507 -0.036671005 -0.13331123 0.012460356 0.11876872 -0.09346722 0.047973357
-0.061572503 -0.09545776 -0.0962654 0.06278864 0.019272955 -0.04960165 0.037258603 -0.05980326
0.26143456 0.16278653 0.1357838 -0.050479185 -0.08304154 -0.0073098443 -0.10366085 0.15654764
0.04055372 0.014286374 -0.15716425 0.0064494913 -0.109976105 0.02490996 -0.08501474 0.05847651
0.20854901 -0.075500906 0.112740226 -0.068923704 -0.2290241 -0.066266306 0.09473838 0.12501934
0.10582642 -0.0062773763 -0.1365437 0.062678985 -0.1313098 -0.011046669 0.13182487 -0.05907873
-0.19510143 -0.07119095 -0.10354055 0.08796027 -0.22980905 -0.11452839 0.009900329 0.08010016
0.282496 0.10624755 0.017153181 -0.031792283 -0.21478847 -0.03554651 0.0037040834 -0.10261703
-0.2692469 -0.101616696 -0.11116212 0.15081744 0.111809626 -0.0035763404 -0.13621908 0.1183271
-0.14677343 0.12611993 -0.051853932 0.12233875 0.079837106 -0.11611058 0.017643377 0.089198016
-0.13046136 -0.27076307 -0.19287951 0.030109335 -0.20700113 -0.023406213 -0.11750439 0.04454902
-0.08092588 0.020020362 0.024493193 -0.113987096 -0.04684058 -0.047527865 0.0073276763 0.07021336
0.15819807 0.15328947 -0.030789202 0.010896119 -0.07611354 -0.027540302 -0.14315681 0.12575603
0.29445297 0.21707658 0.080039725 0.012215786 0.2147753 0.080798455 0.039102364 -0.17847289
0.05610342 -0.007851294 0.03871692 -0.051455993 0.2184426 0.056687977 0.106615804 -0.032510757
-0.22860627 0.022119012 -0.08725407 0.00063066004 -0.3323332 -0.2718898 -0.12517613 0.024573842
-0.2933597 -0.07095766 0.024915047 -0.09856789 0.016710011 -0.021989727 0.05663978 0.010706219
-0.15847905 -0.12712319 -0.040101703 0.06798327 -0.07589008 -0.038577378 -0.07982143 -0.045920096
0.2071896 0.03939303 0.13628961 -0.047670465 -0.028940033 -0.109661385 -0.09205266 -0.009479448
-0.19401409 -0.1301917 -0.046316378 0.03462886 0.101508506 -0.1601153 0.008307939 -0.08408672
0.17349017 -0.033015158 0.08210605 -0.09995112 0.11330169 -0.11981401 -0.09946566 0.022170266
-0.16742979 0.01594955 -0.062317044 -0.0011256742 -0.2200897 0.027769944 -0.03137575 -0.09144686
-0.12226919 -0.20825891 -0.005698196 0.14499299 -0.0062599513 -0.06409316 -0.03757347 -0.05956047
-0.16270205 -0.010205318 -0.084734105 0.07147661 -0.024548465 -0.076029286 0.08898534 0.13059601
0.010881746 -0.09042341 0.032144424 -0.10037779 -0.013388339 -0.06045564 -0.11694785 -0.08861747
-0.13232838 -0.10030987 -0.17590111 0.10416792 0.017304664 -0.042306058 0.073387764 -0.10672901
-0.11465939 0.119760215 -0.022925375 -0.075061664 0.14999816 -0.0944267 0.022945048 -0.062090755
-0.10856106 0.12668186 -0.2538144 0.017736237 -0.115294404 -0.06088326 -0.082583375 0.030440992
0.0617304 -0.116476975 0.08535083 0.0847346 0.05258313 -0.0016311059 -0.061657038 0.111598045
0.020275323 -0.06282662 -0.17745367 0.05941612 0.014252998 -0.10324933 0.07759027 -0.02261185
00000000: 07fa 1ebe 6545 2abe 09ed 72bd ab29 273d
00000010: 806f 75bd f4f8 a23c d96b 893d 5d37 c73d
00000020: a657 343a ea74 aabd b023 9abc 5a68 8fbd
00000030: 766b e63d e037 a239 3b4f 0f3d 129f 133e
00000040: 8b38 833e 0058 063e 5634 16bd bd82 08be
00000050: 8526 4c3c 043d f33d be6b bfbd b67f 443d
00000060: 7333 7cbd 5c7f c3bd cb26 c5bd 5597 803d
00000070: 51e2 9d3c 1a2b 4bbd 7a9c 183d 43f4 74bd
00000080: c0da 853e 83b1 263e e90a 0b3e 43c3 4ebd
00000090: af11 aabd 6b87 efbb 244c d4bd 064e 203e
000000a0: a81b 263d 6511 6a3c aaef 20be 4156 d33b
000000b0: 273b e1bd f90f cc3c 351c aebd 1185 6f3d
000000c0: df8d 553e 38a0 9abd 59e4 e63d df27 8dbd
000000d0: 4b85 6abe a1b6 87bd 3206 c23d 1205 003e
000000e0: 86bb d83d 73b2 cdbb 1dd2 0bbe d75d 803d
000000f0: 1476 06be 17fd 34bc 19fd 063e 8afc 71bd
00000100: abc8 47be 90cc 91bd 110d d4bd 8424 b43d
00000110: 1053 6bbe dc8d eabd fd34 223c 8d0b a43d
00000120: 51a3 903e 5198 d93d d484 8c3c a038 02bd
00000130: 82f1 5bbe 3899 11bd 35c0 723b e128 d2bd
00000140: bbda 89be 6a1c d0bd f7a8 e3bd e36f 1a3e
00000150: 72fc e43d 0961 6abb 047d 0bbe 7b55 f23d
00000160: c64b 16be 9525 013e ca64 54bd bd8c fa3d
00000170: a381 a33d 62cb edbd d888 903c 73ad b63d
00000180: aa97 05be 75a1 8abe 3582 45be daa7 f63c
00000190: 1bf8 53be 63be bfbc 24a6 f0bd 0879 363d
000001a0: 78bc a5bd be01 a43c f3a5 c83c 1172 e9bd
000001b0: e8db 3fbd 94ac 42bd 011d f03b 06cc 8f3d
000001c0: adfe 213e eaf7 1c3e a339 fcbc a385 323c
000001d0: 6ae1 9bbd 339c e1bc b397 12be 30c6 003e
000001e0: 8ac2 963e 5349 5e3e deeb a33d b824 483c
000001f0: 0eee 5b3e a979 a53d cd29 203d 99c1 36be
00000200: b3cc 653d b7a2 00bc a295 1e3d 85c3 52bd
00000210: 6baf 5f3e a731 683d 6359 da3d 002a 05bd
00000220: c317 6abe ee32 b53c 43b2 b2bd e152 253a
00000230: 9427 aabe 2435 8bbe 2c2e 00be 154f c93c
00000240: 3e33 96be 4052 91bd a41a cc3c f6dd c9bd
00000250: 6fe3 883c cd23 b4bc 1dff 673d 2369 2f3c
00000260: 5548 22be 952c 02be af41 24bd d03a 8b3d
00000270: 426c 9bbd 5003 1ebd 6b79 a3bd b616 3cbd
00000280: 8329 543e 965a 213d 818f 0b3e 1b42 43bd
00000290: a613 edbc 2696 e0bd 1b86 bcbd b04f 1bbc
000002a0: a1ab 46be f950 05be 3eb6 3dbd fed6 0d3d
000002b0: b1e3 cf3d 44f5 23be 061e 083c a935 acbd
000002c0: 68a7 313e e73a 07bd 3727 a83d 2cb3 ccbd
000002d0: b70a e83d 0c61 f5bd a7b4 cbbd 6b9e b53c
000002e0: b772 2bbe a1a8 823c 2840 7fbd 5c8b 93ba
000002f0: 325f 61be cb7d e33c dc83 00bd 7e48 bbbd
00000300: 4568 fabd d341 55be efb7 babb 0b79 143e
00000310: 4720 cdbb 4643 83bd a4e6 19bd aef5 73bd
00000320: 5e9b 26be 3534 27bc 1389 adbd 5462 923d
00000330: dd19 c9bc 3eb5 9bbd f23d b63d f6ba 053e
00000340: 5a49 323c e92f b9bd dfa9 033d df92 cdbd
00000350: c45a 5bbc 55a0 77bd 5b82 efbd 137d b5bd
00000360: 1781 07be 436f cdbd 6c1f 34be fe55 d53d
00000370: 83c2 8d3c 1e49 2dbd 534c 963d bd94 dabd
00000380: 8bd2 eabd d844 f53d ffcd bbbc eeb9 99bd
00000390: 1e99 193e c962 c1bd 41f7 bb3c e052 7ebd
000003a0: 4355 debd e4b8 013e f6f3 81be 964b 913c
000003b0: 791f ecbd ba60 79bd 7921 a9bd 635f f93c
000003c0: 04d9 7c3d 7b8b eebd 6acc ae3d 5589 ad3d
000003d0: 6861 573d d5ca d5ba 178c 7cbd 848d e43d
000003e0: 6f18 a63c 3eab 80bd 6ab6 35be 515e 733d
000003f0: 6885 693c 6274 d3bd a6e7 9e3d 7d3c b9bc

gru.weight_hh_l0 f4 [192, 64]
-0.067723855 -0.002142474 -0.011315271 0.104708776 -0.025639042 0.08517636 0.07338151 -0.050425753
0.026313394 -0.026419237 0.09887752 -0.018053293 0.06259826 -0.07168621 0.037086427 -0.063033596
-0.0032668859 -0.08648375 0.030637309 0.039640218 0.07336518 0.08558348 0.11641884 -0.11537883
-0.10736978 -0.084752455 0.108446896 0.059575737 0.117690876 -0.07397553 0.050240397 0.046870813
-0.111883715 -0.06665827 0.07467534 0.1151685 0.028926834 -0.024288222 0.08350475 0.11688551
0.11876428 0.08051816 0.019310236 0.036888182 -0.016033262 0.028229266 -0.021080866 -0.0920264
0.030571029 0.10685758 0.105891034 0.0036673248 -0.015806213 -0.10816379 0.112853974 -0.011669323
0.05762501 -0.10661243 -0.1232418 0.09875393 0.019640252 -0.06571044 0.012099028 0.08517423
-0.00230138 -0.051799297 0.07256186 -0.05910404 0.06444666 -0.023322284 0.061605766 -0.09069292
-0.11294247 -0.07421507 -0.09558426 -0.073059335 -0.051518783 -0.012872532 -0.07898216 -0.051933646
-0.059223562 0.106719226 0.010513827 0.11472164 0.09711614 -0.11699273 0.07106179 0.06757979
0.06290056 -0.025069445 0.05081685 -0.09964442 -0.02130635 0.05023186 0.016300693 -0.106726125
0.08615832 0.044446915 0.106509745 -0.096907064 -0.027389392 -0.054992452 0.03766495 -0.08119318
0.001349926 0.09227796 -0.10299465 0.06594519 -0.06180021 0.021350235 -0.06411195 -0.022275493
-0.11484645 -0.039569452 -0.018934712 -0.04588349 0.12434727 -0.098958254 -0.08774328 -0.002896309
0.089731574 0.11280635 -0.10913208 -0.035141155 0.0860353 -0.0027170926 0.035110205 0.027379528
-0.003880307 -0.0002886355 0.051578134 -0.10035455 -0.036221296 -0.04962316 -0.037993222 0.039013714
0.10165024 -0.08731474 0.076894045 0.07504314 0.07738668 0.066756934 0.0048510134 0.042127743
0.08703902 0.09692161 0.030119628 0.09107132 -0.065347195 -0.07611038 -0.096645236 -0.05319546
0.06346038 0.08910172 -0.09394333 -0.0015712976 0.08781573 0.040304005 0.077526554 0.11212757
0.10686937 -0.11261514 -0.07272038 0.0880446 0.01946412 0.07307166 -0.06961995 0.1226525
-0.11001474 -0.12174809 0.11132403 0.049111634 -0.08813313 -0.06459074 0.082362756 0.0254405
0.02241321 -0.015174404 -0.07794699 0.017092615 0.09673031 0.021951884 0.11183934 -0.06715137
-0.08853871 -0.058253974 0.09780197 0.028058052 -0.02177082 0.008500308 -0.024130061 -0.068783626
-0.025058478 -0.108236864 -0.1143516 0.04867637 -0.09489338 -0.02436398 -0.027625501 -0.006081417
0.0052971095 -0.054975778 0.06536867 0.069996625 -0.11224608 0.08159819 -0.090268165 0.06301923
-0.09084357 -0.0789713 0.09305748 0.00999105 0.015499353 -0.11928873 0.021766126 -0.049221516
-0.092653155 0.057543665 0.015707359 0.029914498 -0.040651664 -0.0093343705 -0.11662868 -0.01013042
-0.055648223 -0.018094063 0.028313741 -0.11030622 -0.06295432 -0.03104183 0.08663471 -0.0678864
-0.0148834735 0.053122938 -0.06032954 -0.06015542 0.08302063 0.081987426 0.10364421 0.019501954
0.04357469 0.12175822 0.116238 0.008798048 -0.05318941 -0.03664644 -0.114064276 -0.090963796
-0.03419812 0.038980246 0.03840269 0.11128287 -0.11123255 -0.0012279898 -0.096674904 -0.015119687
00000000: ceb2 8abd c068 0cbb b063 39bc 8e71 d63d
00000010: f808 d2bc f270 ae3d 0c49 963d 3c8b 4ebd
00000020: 308f d73c 286d d8bc 4c80 ca3d 80e4 93bc
00000030: 8433 803d 38d0 92bd f0e7 173d c217 81bd
00000040: 4019 56bb 641e b1bd 18fb fa3c c85d 223d
00000050: 7c40 963d 6446 af3d 006d ee3d bc4b ecbd
00000060: b0e4 dbbd b292 adbd 6819 de3d b005 743d
00000070: ea07 f13d 7c80 97bd e0c8 4d3d 9cfb 3f3d
00000080: 4a23 e5bd 2284 88bd 62ef 983d 76dd eb3d
00000090: f8f7 ec3c 18f8 c6bc 8a04 ab3d ac61 ef3d
000000a0: b03a f33d b4e6 a43d 8030 9e3c 1018 173d
000000b0: 3058 83bc 1041 e73c c8b1 acbc 5678 bcbd
000000c0: 1870 fa3c 26d8 da3d 66dd d83d 8057 703b
000000d0: 087c 81bc fa84 ddbd fc1f e73d b030 3fbc
000000e0: 3408 6c3d 9e57 dabd 3266 fcbd 803f ca3d
000000f0: 98e4 a03c 3293 86bd 003b 463c d46f ae3d
00000100: c0d2 16bb 802b 54bd 509b 943d 1417 72bd
00000110: 9cfc 833d 600e bfbc 5456 7c3d 36bd b9bd
00000120: 624e e7bd 12fe 97bd aec1 c3bd 22a0 95bd
00000130: 5c05 53bd 50e7 52bc 66c1 a1bd 60b8 54bd
00000140: 6894 72bd 9c8f da3d 3042 2c3c 2ef3 ea3d
00000150: d4e4 c63d e299 efbd d888 913d 4667 8a3d
00000160: 02d2 803d 705e cdbc 5425 503d 6012 ccbd
00000170: a88a aebc ecbf 4d3d 0889 853c 3a93 dabd
00000180: c673 b03d f80d 363d c821 da3d 3677 c6bd
00000190: b85f e0bc c43f 61bd 9046 1a3d 9c48 a6bd
000001a0: 00f0 b03a 3afc bc3d dcee d2bd 460e 873d
000001b0: 3822 7dbd b0e6 ae3c 204d 83bd 187b b6bc
000001c0: 9e34 ebbd 9413 22bd f81c 9bbc 54f0 3bbd
000001d0: c8a9 fe3d a0aa cabd c0b2 b3bd 00d0 3dbb
000001e0: 30c5 b73d 0407 e73d a480 dfbd 2cf0 0fbd
000001f0: 4633 b03d 4011 32bb b8cf 0f3d 084b e03c
00000200: c04c 7ebb 0054 97b9 9843 533d b086 cdbd
00000210: c85c 14bd a841 4bbd c89e 1bbd d8cc 1f3d
00000220: 002e d03d 12d2 b2bd a07a 9d3d 38b0 993d
00000230: e87c 9e3d dcb7 883d 40f5 9e3b 248e 2c3d
00000240: 8441 b23d d67e c63d 70bd f63c 9a83 ba3d
00000250: c0d4 85bd c2df 9bbd f0ed c5bd 7ce3 59bd
00000260: 84f7 813d f67a b63d 5c65 c0bd 00f4 cdba
00000270: bcd8 b33d d015 253d 3ec6 9e3d 24a3 e53d
00000280: 54de da3d c4a2 e6bd 6cee 94bd ba50 b43d
00000290: 3873 9f3c 98a6 953d e894 8ebd 3c31 fb3d
000002a0: 684f e1bd 1057 f9bd dafd e33d 4829 493d
000002b0: 247f b4bd 2648 84bd cead a83d 9868 d03c
000002c0: e89b b73c 109e 78bc aca2 9fbd d005 8c3c
000002d0: 8a1a c63d 70d4 b33c 060c e53d a886 89bd
000002e0: c853 b5bd b89b 6ebd 664c c83d 00da e53c
000002f0: b858 b2bc e044 0b3c 68ac c5bc 6ede 8cbd
00000300: 7047 cdbc 4aab ddbd 2c31 eabd e060 473d
00000310: 7657 c2bd f896 c7bc e04e e2bc a046 c7bb
00000320: 6093 ad3b 482e 61bd 02e0 853d 645a 8f3d
00000330: 46e1 e5bd f41c a73d 84de b8bd 3a10 813d
00000340: 320c babd b4bb a1bd ec94 be3d 80b1 233c
00000350: 00f1 7d3c a64d f4bd e04e b23c 809c 49bd
00000360: f0c0 bdbd e8b2 6b3d b8ac 803c 400f f53c
00000370: 5c82 26bd 30ef 18bc 04db eebd 10fa 25bc
00000380: 64ef 63bd 003a 94bc 38f2 e73c 3ae8 e1bd
00000390: 32ee 80bd 704b febc 8a6d b13d 0608 8bbd
000003a0: d0d9 73bc 7097 593d 1c1c 77bd 8865 76bd
000003b0: b806 aa3d 06e9 a73d 6a43 d43d 90c2 9f3c
000003c0: 607b 323d 605c f93d 300e ee3d b025 103c
000003d0: 24dd 59bd 941a 16bd 889a e9bd 3a4b babd
000003e0: 5413 0cbd c0a9 1f3d 244c 1d3d 46e8 e33d
000003f0: e4cd e3bd 80f4 a0ba 7efd c5bd 90b8 77bc

gru.bias_ih_l0 f4 [192]
-0.102369934 0.092487045 -0.067864455 -0.091489434 -0.014018709 6.788836e-06 -0.043958347 -0.065613836
0.077525206 -0.017231315 0.0047921455 0.081650935 0.17237517 0.09269466 -0.018830823 0.13308528
-0.13919553 -0.07051525 0.08600935 -0.085195534 -0.069910966 -0.01193635 -0.060217667 0.08606009
-0.04331036 -0.0012579577 0.05214054 -0.16852924 -0.17132127 -0.08003515 -0.006931333 0.022152873
-0.25269812 -0.022290396 0.045924373 0.108219 0.15410586 -0.070761904 0.060645267 -0.096928865
0.14528969 0.08664819 -0.11117894 -0.11459635 -0.1355072 0.05407489 -0.081430376 -0.031359527
-0.026135182 -0.1265481 -0.06183845 -0.0630761 0.03892493 0.120922364 0.10481718 -0.10588582
-0.019012883 0.06211693 -0.04330323 -0.017441146 -0.12806357 -0.069548704 -0.11999644 0.09106613
-0.10358237 -0.084965244 -0.033866208 -0.025553687 -0.2538526 -0.18353143 0.025620844 -0.165815
-0.071776666 -0.13446882 -0.11028237 -0.032691974 -0.16520981 -0.11868374 0.07403174 -0.06388613
-0.13588409 -0.26218307 -0.13328923 -0.12989597 -0.2803866 -0.16260746 0.05311369 0.08745275
-0.12679572 -0.21076806 0.09852983 -0.13389158 -0.18971631 -0.099131286 -0.19812043 -0.19946064
-0.05956624 -0.1381472 -0.12102387 -0.13626157 0.00931983 -0.06733269 -0.115267 0.03807342
-0.24200271 -0.024098579 -0.03758537 0.092661954 -0.21109836 -0.24976599 -0.11987633 -0.29521465
-0.2680698 -0.014608162 -0.10704349 0.06495833 -0.08957913 0.059517495 -0.25332513 -0.190148
-0.044811063 -0.14831373 0.3505427 -0.24693783 0.14435197 -0.16499247 -0.07771552 -0.23085232
0.039185 -0.04029866 0.12264359 -0.058734898 -0.055679217 0.012978632 0.06479623 -0.121730976
0.066756815 0.020512598 0.07847062 -0.0538456 -0.08442512 0.08392914 -0.056948986 -0.088723816
0.118271165 -0.0314806 -0.13111229 -0.07749389 -0.10111538 0.07819821 0.0016979753 -0.0007515067
-0.159745 -0.0072030816 -0.07014181 0.09570687 0.046686955 0.06117368 -0.027592808 -0.030103484
0.06337795 -0.028616626 -0.086607255 0.01388648 0.07138891 -0.115967914 -0.083035454 0.09496148
0.09406386 -0.07796351 -0.009653331 0.01047012 0.0551517 0.094261006 -0.054582044 0.09664946
0.007767344 -0.050676405 -0.017050955 -0.06223487 0.10387378 -0.07941313 0.075717784 -0.10823278
-0.016388284 -0.080862224 0.0046270154 0.00026053356 -0.09770613 -0.059753988 -0.08176427 -0.014675777
00000000: 54a7 d1bd d969 bd3d 85fc 8abd d05e bbbd
00000010: baae 65bc a8cb e336 ab0d 34bd 8c60 86bd
00000020: 89c5 9e3d b028 8dbc 6e07 9d3b 9b38 a73d
00000030: 1e83 303e b3d6 bd3d 1943 9abc 8247 083e
00000040: 4689 0ebe 4d6a 90bd ac25 b03d ff7a aebd
00000050: 7b2d 8fbd ae90 43bc cda6 76bd 4640 b03d
00000060: 3466 31bd 0ee2 a4ba 5291 553d ee92 2cbe
00000070: d86e 2fbe 78e9 a3bd 3c20 e3bb f179 b53c
00000080: a661 81be 599a b6bc 321b 3c3d eca1 dd3d
00000090: edcd 1d3e 9eeb 90bd 2c67 783d a482 c6bd
000000a0: d2c6 143e 9b74 b13d c9b1 e3bd 7eb1 eabd
000000b0: 66c2 0abe a27d 5d3d f8c4 a6bd d972 00bd
000000c0: 7319 d6bc d395 01be 514a 7dbd 0b2e 81bd
000000d0: bf6f 1f3d 25a6 f73d 64aa d63d aada d8bd
000000e0: e8c0 9bbc 526e 7e3d ba5e 31bd bce0 8ebc
000000f0: 1923 03be 8d6f 8ebd b2c0 f5bd e180 ba3d
00000100: fe22 d4bd 4202 aebd 4bb7 0abd f755 d1bc
00000110: f8f8 81be aaef 3bbe cee2 d13c 68cb 29be
00000120: a5ff 92bd 32b2 09be b9db e1bd 05e8 05bd
00000130: c32c 29be 7610 f3bd f49d 973d bbd6 82bd
00000140: 3325 0bbe dc3c 86be f97c 08be 7303 05be
00000150: d58e 8fbe 9282 26be be8d 593d 6d1a b33d
00000160: bdd6 01be 95d3 57be 02ca c93d e01a 09be
00000170: fe44 42be 5805 cbbd 15e0 4abe 693f 4cbe
00000180: bbfb 73bd 7676 0dbe 5ddb f7bd 2788 0bbe
00000190: 33b2 183c b9e5 89bd 1b11 ecbd e0f2 1b3d
000001a0: 8fcf 77be 626a c5bc 1ef3 19bd 8dc5 bd3d
000001b0: 2b2a 58be a8c2 7fbe b981 f5bd 6026 97be
000001c0: 7240 89be 1357 6fbc 9e39 dbbd df08 853d
000001d0: 4375 b7bd 9ec8 733d d5b3 81be 28b6 42be
000001e0: ce8b 37bd 8edf 17be 557a b33e 45dd 7cbe
000001f0: 01d1 133e c9f3 28be 5129 9fbd 8d64 6cbe
00000200: 7380 203d 3510 25bd 902c fb3d 0194 70bd
00000210: e40f 64bd 54a4 543c e3b3 843d 174e f9bd
00000220: ccb7 883d 090a a83c 34b5 a03d 348d 5cbd
00000230: 14e7 acbd 0ae3 ab3d 5743 69bd d5b4 b5bd
00000240: 2738 f23d cdf1 00bd 4d42 06be 1eb5 9ebd
00000250: 9515 cfbd 6226 a03d 998e de3a c300 45ba
00000260: 3194 23be d407 ecbb 82a6 8fbd f701 c43d
00000270: d23a 3f3d 4191 7a3d 500a e2bc 959b f6bc
00000280: 4ccc 813d 6a6d eabc 255f b1bd 1e84 633c
00000290: 5934 923d 9680 edbd 7e0e aabd 2a7b c23d
000002a0: 8ea4 c03d 55ab 9fbd 0129 1ebc de8a 2b3c
000002b0: c0e6 613d ea0b c13d 6c91 5fbd 27f0 c53d
000002c0: 3485 fe3b 1092 4fbd 72ae 8bbc fee9 7ebd
000002d0: c7bb d43d 5aa3 a2bd ed11 9b3d 26a9 ddbd
000002e0: b940 86bc 189b a5bd 389e 973b 3998 8839
000002f0: 271a c8bd 99c0 74bd 0774 a7bd ac72 70bc

gru.bias_hh_l0 f4 [192]
-0.10054523 0.041661743 0.08821022 -0.036513004 0.0478369 -0.0005042711 -0.08058178 -0.06090604
0.093017064 0.050624445 0.013580566 -0.029978847 0.15631899 -0.04232542 -0.029747585 0.13471314
-0.09574601 -0.101410754 0.040392 0.016437702 0.023003858 -0.0929064 -0.097578704 -0.030871164
-0.14050214 0.03262715 -0.008532544 -0.28789014 0.06910167 -0.14479737 0.061383452 -0.04057596
-0.025544021 -0.097654834 -0.043795116 -0.07212116 0.122829616 -0.013454318 -0.04188462 0.036305163
0.041823216 -0.07361347 -0.057464115 0.10629347 0.010047339 0.015664551 -0.06839743 -0.0048506833
-0.06910501 0.04775524 0.087479785 0.07410135 0.00054977206 -0.024430467 -0.110613376 -0.09626664
-0.08902826 0.030604646 0.09111391 0.08544057 -0.13968752 -0.001763393 -0.08902104 0.002373319
-0.19303706 -0.10892177 -0.17948174 -0.13701296 -0.2178216 -0.06301542 -0.10567166 -0.19336054
-0.06928716 -0.112340264 -0.24029721 0.14853159 -0.2898982 -0.051559534 0.008441553 -0.15301773
-0.054615285 -0.24909273 -0.1483097 -0.26571333 -0.20955713 -0.27340227 0.008062943 0.08853275
-0.05151027 -0.2634378 0.0038912687 -0.058837995 -0.13429666 -0.17946228 -0.14250077 -0.067848414
0.12123957 -0.28789723 -0.1344721 -0.19339181 0.085858405 -0.03288426 -0.09522592 -0.098393016
-0.2700044 -0.25634143 -0.25844485 0.0014948258 -0.1732888 -0.18234074 -0.09863111 -0.29162818
-0.1585113 0.13141371 -0.14638795 0.12468762 -0.12577727 0.050798923 -0.22028364 -0.22230008
-0.019952703 -0.055803005 0.18549211 -0.0667736 0.20046906 -0.060556106 -0.11203969 -0.16065429
0.096745014 -0.13619511 0.11919862 -0.038741257 -0.14314511 0.015751498 -0.0381837 0.06745279
0.20721336 -0.033796653 0.07313833 -0.15420352 -0.23333354 0.13101338 -0.1781313 -0.04371924
-0.13299799 -0.0691461 -0.15455788 0.13102272 0.20704305 0.060343094 0.1086987 0.028883072
0.058702473 0.12769611 -0.06318627 -0.0030376322 0.047427703 0.0062070177 0.11905493 0.09897874
0.0010880013 0.15132816 -0.1613426 0.10153044 0.09723027 -0.06962031 -0.08575774 0.073752016
0.10409075 0.065019995 0.15183501 0.12204602 -0.037825596 0.11764487 -0.11643572 0.07718072
-0.083539546 0.09305449 -0.07175477 0.11317609 0.098326884 0.06705537 -0.05409752 -0.058408435
0.072766334 -0.07083735 -0.1322518 0.08936086 0.061927173 -0.083618924 -0.1165584 0.045884218
00000000: a8ea cdbd 81a5 2a3d 8fa7 b43d a98e 15bd
00000010: a0f0 433d 1031 04ba 0f08 a5bd 9d78 79bd
00000020: bb7f be3d 945b 4f3d 0681 5e3c 3396 f5bc
00000030: 1612 203e 6b5d 2dbd 35b1 f3bc 3ef2 093e
00000040: 7c16 c4bd 71b0 cfbd 1572 253d 5ca8 863c
00000050: 9672 bc3c b645 bebd 58d7 c7bd 86e5 fcbc
00000060: cbdf 0fbe 0ca4 053d 15cc 0bbc 5666 93be
00000070: 2d85 8d3d c345 14be 376d 7b3d fa32 26bd
00000080: b241 d1bc 42ff c7bd 8262 33bd 42b4 93bd
00000090: 188e fb3d 806f 5cbc 358f 2bbd b9b4 143d
000000a0: d24e 2b3d a9c2 96bd 7e5f 6bbd 64b0 d93d
000000b0: 989d 243c f252 803c f413 8cbd 7bf2 9ebb
000000c0: ed86 8dbd 009b 433d 9a28 b33d 73c2 973d
000000d0: 941e 103a 6722 c8bc 4489 e2bd 7227 c5bd
000000e0: 7354 b6bd 98b6 fa3c ee99 ba3d 77fb ae3d
000000f0: 3f0a 0fbe a721 e7ba aa50 b6bd af89 1b3b
00000100: 82ab 45be 6012 dfbd 10ca 37be 204d 0cbe
00000110: a00c 5fbe 3b0e 81bd 626a d8bd 4e00 46be
00000120: 6de6 8dbd a712 e6bd 7910 76be aa18 183e
00000130: 896d 94be 1730 53bd 714e 0a3c aeb0 1cbe
00000140: 47b4 5fbd 2a12 7fbe 7fde 17be 940b 88be
00000150: 2596 56be 62fb 8bbe 6f1a 043c a950 b53d
00000160: 6ffc 52bd 52e1 86be a804 7f3b 1c00 71bd
00000170: 1085 09be f6c4 37be b9eb 11be 1cf4 8abd
00000180: 744c f83d 4467 93be 0eb3 09be 8108 46be
00000190: 88d6 af3d a5b1 06bd cf05 c3bd 4782 c9bd
000001a0: 043e 8abe 2f3f 83be e252 84be 08ee c33a
000001b0: 9f72 31be 88b7 3abe 1bff c9bd 4a50 95be
000001c0: c950 22be 5191 063e b9e6 15be 395c ff3d
000001d0: c2cb 00be 8812 503d 0992 61be a2a2 63be
000001e0: da73 a3bc b191 64bd a5f1 3d3e 99c0 88bd
000001f0: c347 4d3e ae09 78bd 1175 e5bd 8f82 24be
00000200: 4022 c63d bb76 0bbe 681e f43d 27af 1ebd
00000210: a294 12be 4909 813c 8366 1cbd b024 8a3d
00000220: bd2f 543e 5c6e 0abd 8cc9 953d 87e7 1dbe
00000230: fdee 6ebe 5f28 063e 0d68 36be f212 33bd
00000240: a030 08be 789c 8dbd 6c44 1ebe d22a 063e
00000250: 1803 543e 522a 773d 6d9d de3d 319c ec3c
00000260: 0172 703d c5c2 023e ce67 81bd 0313 47bb
00000270: 8d43 423d 3d64 cb3b 12d3 f33d 5eb5 ca3d
00000280: 449b 8e3a c5f5 1a3e ff36 25be 31ef cf3d
00000290: aa20 c73d 1895 8ebd c1a1 afbd 4c0b 973d
000002a0: 882d d53d 3429 853d a37a 1b3e 44f3 f93d
000002b0: 03ef 1abd cbef f03d da75 eebd ed10 9e3d
000002c0: c816 abbd 5a93 be3d 2af4 92bd dec8 e73d
000002d0: 9b5f c93d 5354 893d 5c95 5dbd af3d 6fbd
000002e0: 8406 953d 2c13 91bd 046d 07be d402 b73d
000002f0: 59a7 7d3d 6640 abbd 2cb6 eebd 17f1 3b3d

fc.weight f4 [1, 64]
-0.1699052 0.20410655 0.21289217 0.12013153 -0.18630165 -0.25502124 -0.08443267 0.103867024
0.15849088 0.18326522 -0.24411958 -0.060494684 -0.16908808 -0.19912721 -0.16568074 0.25655743
0.2581541 0.27310482 -0.14511392 -0.20333658 -0.2120982 0.20580286 -0.13114232 0.057382476
-0.13610904 -0.23038898 0.14484662 -0.079691134 0.1767626 0.23276313 0.16830595 0.2526881
0.11199185 0.16532087 0.16225393 -0.18409283 -0.0677642 -0.23585635 0.19049498 -0.06982978
0.1754726 0.14211641 -0.22063528 0.06453892 -0.22565243 0.27406213 0.20646465 -0.22546683
0.1620679 0.0015836783 0.20230055 0.002147542 0.18078434 0.07114806 0.15463339 -0.18783562
-0.21590716 -0.11811864 0.28492886 -0.22451131 0.0011111244 -0.19607328 -0.099885546 0.22203457
00000000: a1fb 2dbe 4f01 513e 6800 5a3e 8507 f63d
00000010: dcc5 3ebe 2592 82be 09eb acbd 3cb8 d43d
00000020: 6f4b 223e e1a9 3b3e 7cfa 79be 46c9 77bd
00000030: 6d25 2dbe 01e8 4bbe 36a8 29be 7f5b 833e
00000040: c62c 843e 65d4 8b3e be98 14be 7737 50be
00000050: 4530 59be fcbd 523e 2c4a 06be e309 6b3d
00000060: 2b60 0bbe 17eb 6bbe ac52 143e 1b35 a3bd
00000070: 4101 353e 7559 6e3e 6558 2c3e 5660 813e
00000080: fc5b e53d e049 293e e525 263e d582 3cbe
00000090: f5c7 8abd 5484 71be 1e11 433e ea02 8fbd
000000a0: 17af 333e f786 113e 37ee 61be fb2c 843d
000000b0: 6e11 67be df51 8c3e 786b 533e c7e0 66be
000000c0: 21f5 253e 6d93 cf3a e027 4f3e c7bd 0c3b
000000d0: 881f 393e 13b6 913d 3758 1e3e fb57 40be
000000e0: c416 5dbe 2fe8 f1bd 32e2 913e 4be6 65be
000000f0: 26a3 913a 6fc7 48be cb90 ccbd 085d 633e
